food_recommendation_model.tflite (tflite, 55592 bytes, 2 tensors)

arith.constant f4 [100, 32]
00000000: 6136 00bf 2b92 7fbf ff03 493f 5ff1 543f
00000010: c811 20bf de64 4b3f 0a99 573f 1ab3 2abf
00000020: 2c44 31bf 7183 563f 1d82 51bf e01d 243f
00000030: 91a0 013f f595 65bf fdb1 47bf 97a7 7bbf
00000040: a87c 3fbf dd2b 283f f803 233f 036f 3abf
00000050: bdc9 493f 14a9 59bf 7721 2d3f bc1c aebe
00000060: 95c1 5dbf ad3c 5e3f 45a7 4a3f 5707 193f
00000070: 12c8 3fbf 691b 1f3f adcc 42bf d97d 74bf
00000080: 18dc 5fbf 1fe9 43bf 76d5 ae3d 8fb1 583f
00000090: 7b53 e4be 1ccb 593f e3da e13d 9e79 b6bc
000000a0: 0cba d1be 2c23 33be e118 eb3e 1825 553f
000000b0: b0d7 da3e 543c 4dbf 9b8d 5dbf 50e8 2a3f
000000c0: d349 3abf 52b8 313f 0dbb 4a3f da1e 1cbf
000000d0: 9961 c3bc 8b3c 40bf 1c2c 823e 8d9e 3e3f
000000e0: 73fd 94be c619 0f3f 5e8c 5ebf c0a3 1f3f
000000f0: 571a 373f 0925 1abf 2e93 d83e f9de be3e
00000100: 615c a73e 92ff f73e 57b0 353f 30af fc3e
00000110: 1905 eb3e 7685 223f ed26 25bf 93d4 05bf
00000120: a86c 263f 444b c9be beac a8be 4880 fc3e
00000130: c9ae 073f 7277 1ebf d089 0f3f 3cf1 19bf
00000140: cfe7 1e3f caec 9b3e fa2b e6be 7fe0 35bf
00000150: a8bb dc3e 5ff6 f4bd 9e85 3abd 21ee d6be
00000160: b63f 223f 0cda 02bf 0bcb 06be bfe6 173f
00000170: 313d 673e ca39 1a3f 5b15 243f 3d3a 53be
00000180: 1b5f 7d3e 2f91 a83e 94be 8c3d 26e7 78be
00000190: 1437 173f 0f7a 0d3f a2b1 38bf 3352 71be
000001a0: 73b1 dcbe 9f01 08be 9c3f 36bf 6467 1d3f
000001b0: a0d5 9ebe 75d1 09bf 3720 d43d 635d 60be
000001c0: 1e72 f7be be98 62bd fb4e e4be a83a 493d
000001d0: 8b49 213f 5961 c9be b245 04bf 0a06 ff3e
000001e0: 2b1b 003f 8496 7abe 00f6 eebe bc6c 19bf
000001f0: 85b0 273f 4528 d1be 84c9 093f 3707 e3be
00000200: b18c 283f 07e1 303f 2dae 45bf 9e4d 2c3f
00000210: d542 5b3f a129 573f 0b1c 173d abe5 783c
00000220: 0745 36bf e130 4f3f cdab 1fbe 7341 543f
00000230: 813a 443f 40e3 59bf 6173 bb3e 457c c5be
00000240: 46c9 62bf 7613 4f3f bf71 55bf 1036 4dbf
00000250: e82a 523f 0413 53bf 0c59 4e3f ff5c 133d
00000260: 52f2 603f 19dd 60bf 1d56 5ebf 8033 27bf
00000270: c9db 0c3f a0db aebd 7625 f63e 4c8b a7be
00000280: 7bf3 2bbf ac44 063f 0cca 483f d7dc 2e3f
00000290: 4b48 37bf 07c6 cdbe 64d3 08bf f151 40bf
000002a0: 747e 45bf 3567 16bf 2b2f 37bf c82a 0fbf
000002b0: 3288 fa3e 583a 40bf 3279 01bf 8332 12bf
000002c0: 369d 37bf e973 3a3f 90aa 3ebf a41b 8a3e
000002d0: 2009 37bf 794d 2dbf 4f07 16bf 64f2 34bf
000002e0: a80d 1c3f ac8b 1b3f 47d8 483f 38ad 4bbf
000002f0: 645f 353f 0aee 383f 439c 3dbf cf3c 48bf
00000300: 0330 16bf d0cb 2fbf 4e24 0e3f 69c5 1dbf
00000310: 328e 1c3f b7a1 1b3f d454 20bf 8aee 0dbf
00000320: 3af2 2ebf f3ae 1abf d9c2 133f ccc8 1d3f
00000330: 9ece c4be 4714 1abf 5599 10bf 72a6 283f
00000340: f8dd 25bf 9297 193f e16b 29bf 37f9 24bf
00000350: 8847 b73e 9fa1 273f 0a24 2dbf 4477 f6be
00000360: fe89 c53e 4f76 14bf 71e8 0b3f a2f0 983e
00000370: 89f1 2fbf 4bec 26bf cbf8 29bf 1c30 28bf
00000380: 03e0 00bf 6f45 b5be 90f5 083f 5afd e33e
00000390: 54e3 2abe b0c6 a93e f7ad fcbe 6ce1 bb3e
000003a0: cec3 02bf fc4c 01bf 41ce 15bf 7dc7 39be
000003b0: 35ca 3e3e 3964 05bf 458f 1b3f f6fc d93e
000003c0: 65fe bcbe 7107 d43e b304 06bf 5efe c53e
000003d0: ccb0 0ebf e81e d43e 045c abbe 06ce 0cbf
000003e0: d1c5 ccbe 1f7b 18bf 9d3b a53d b55c 0c3f
000003f0: 766a edbe 54f6 e6be 560a 063e f6ae 01bf
-0.50082976 -0.9983241 0.7852172 0.83180803 -0.6252713 0.79450786 0.84217894 -0.6667954
-0.6924465 0.83794314 -0.8183916 0.64108086 0.5063563 -0.8968194 -0.78005964 -0.98302597
-0.74799585 0.6569193 0.6367793 -0.7282564 0.78823453 -0.8502362 0.6762919 -0.34006298
-0.8662351 0.86811334 0.79161483 0.59776825 -0.7491466 0.621512 -0.7609356 -0.9550453
-0.8744521 -0.7652759 0.08536808 0.8464593 -0.4459494 0.85075545 0.110280775 -0.022274788
-0.40962255 -0.17493886 0.4591742 0.83259726 0.42742682 -0.8017018 -0.865442 0.6676073
-0.72768897 0.69421875 0.79191667 -0.60984576 -0.02385025 -0.7509238 0.25424278 0.7446068
-0.29099616 0.558987 -0.86932933 0.6235924 0.71524566 -0.6021276 0.4229979 0.3727949
0.32687667 0.48437172 0.709722 0.49352407 0.45902327 0.63484895 -0.6451252 -0.5227749
0.65009546 -0.39315236 -0.32944292 0.4931662 0.53001076 -0.6190101 0.5606966 -0.6013372
0.6207246 0.30454093 -0.44955426 -0.7104568 0.4311192 -0.11961054 -0.045537584 -0.41978553
0.63378465 -0.51113963 -0.13163392 0.59336466 0.22581936 0.6024443 0.64095086 -0.20627685
0.24743311 0.32923266 0.068722874 -0.24306926 0.5906842 0.5526437 -0.72146046 -0.23566513
-0.43104133 -0.13281868 -0.7119081 0.61485887 -0.31022358 -0.5383523 0.10357707 -0.21910624
-0.48329252 -0.055321448 -0.44591507 0.049128205 0.6300284 -0.39332083 -0.51668847 0.49809295
0.50041455 -0.2447148 -0.46672058 -0.5993154 0.6550372 -0.40851036 0.53823113 -0.44341442
0.6583968 0.69093364 -0.77218896 0.67305934 0.8564885 0.84047896 0.03689198 0.015191476
-0.7119908 0.8093396 -0.1559288 0.8291237 0.7665177 -0.8511238 0.36611465 -0.38571373
-0.8858837 0.8088907 -0.8337669 -0.8016062 0.8209672 -0.8245089 0.80604625 0.03597736
0.8786975 -0.8783737 -0.8685015 -0.6531296 0.55022866 -0.08537984 0.48075455 -0.32723463
-0.67168397 0.52448535 0.784333 0.68305725 -0.71594685 -0.40190145 -0.53447556 -0.7512503
-0.7714608 -0.5875123 -0.7155635 -0.55924654 0.48932034 -0.75089025 -0.50575554 -0.57108325
-0.7172426 0.72833115 -0.7447901 0.26974213 -0.714983 -0.6769634 -0.586049 -0.7068236
0.6095834 0.6076 0.78455013 -0.79561186 0.7084868 0.7223822 -0.7406656 -0.78217787
-0.5866701 -0.6867037 0.55524147 -0.6162935 0.6115447 0.6079363 -0.6262944 -0.55442107
-0.6833836 -0.604232 0.5771919 0.61634517 -0.38438886 -0.6018719 -0.56483966 0.65878975
-0.6479182 0.599969 -0.66180235 -0.6444277 0.35796762 0.6548099 -0.67633116 -0.48137867
0.38581842 -0.57993025 0.5465155 0.29871088 -0.6872793 -0.65204304 -0.6639525 -0.6569841
-0.50341815 -0.35404536 0.534997 0.4452923 -0.16688281 0.331594 -0.49351475 0.3669542
-0.51080024 -0.50508094 -0.58517843 -0.18142505 0.18631823 -0.5210605 0.60765487 0.42575806
-0.36912838 0.41411927 -0.5235092 0.3867063 -0.5573852 0.4142983 -0.3346864 -0.55001867
-0.39994672 -0.5956287 0.08068011 0.5482896 -0.46370286 -0.45109808 0.1308988 -0.50657594

arith.constant1 f4 [309, 32]
00000000: 3a2a 0cbf 29e3 17bf 8fcf 57bd 4857 173f
00000010: 11ff d2be 2427 193f cc9c a53e f436 3c3e
00000020: 5d5b 0abf 663f 88be e779 963e 05cf e33e
00000030: bc2b 183f 9f86 1cbf 871b 0dbf 9b9b aa3e
00000040: f698 11bf bd05 103f 3fa1 053f 303f 08bf
00000050: d49d f73d d7de 18bf 1fd9 f63e 000e d43e
00000060: b80c ebbe 557d 173f 1a96 d9be c7a6 183f
00000070: ee24 e43e 4efc adbe 1a67 843e 719a 183e
00000080: 7e09 f43e 9f37 003f 4523 cdbe 2749 893e
00000090: b7b5 0a3f d4fa 033f ed9a a0be 01dd 8bbe
000000a0: 4228 0cbf 1046 fd3e 1636 04bf 5a29 0e3f
000000b0: 2312 bb3e 341a 05bf 6a8f e43e 0e70 f1be
000000c0: 0fb6 f3be be62 e53e e617 f4be 899f bbbe
000000d0: 44e9 153f cc94 04bf f7f5 a03e 90d0 c83c
000000e0: a851 df3e f698 dbbe dc55 01bf 6ab8 f3be
000000f0: 35a0 153f 3727 f7be aeff 093f 8966 09bf
00000100: c2fd 9dbe 448e abbe 4645 bd3e 3f9d b1be
00000110: 3640 cb3e 86fb bb3e a5ba d0be 3c6d e9be
00000120: dc73 aebe e333 c9be c966 d43e 55fc b83e
00000130: ef98 c5be 12a1 afbe 035e bfbe 266b c93e
00000140: 6249 c9be c5f1 b03e c773 bfbe 77ef b3be
00000150: 8965 8f3e 4788 b33e 8d04 9bbe b8b8 e2be
00000160: b880 c53e 8ed2 b9be b92f d83e d64f c33e
00000170: df67 b5be f818 d3be c2bb aabe cf05 bebe
00000180: fbfb f0be b014 05bf 00b8 013f f6de f63e
00000190: c495 7bbe d6a5 f03e f34d febe 5e0a d83e
000001a0: 6e78 ebbe bbc7 ddbe c313 76be ef97 91be
000001b0: 2e13 b83e f713 dcbe 5fe3 f63e 2f16 fe3e
000001c0: bd89 bbbe fb6f 5d3e 4cd5 e3be ff16 1d3e
000001d0: 892e 97be d5a3 013f 0b45 efbe 67e3 f7be
000001e0: b321 bdbe 9e66 edbe 9ef9 803e 43f9 f13e
000001f0: 7128 f0be 6434 fbbe cdee 7d3b 2497 05bf
00000200: 021c e63d cf16 c63e ecec 3fbf 3a9f 5c3f
00000210: 57a6 363f 2e73 193f 95a1 2f3f a388 233f
00000220: 5a88 17be 625d d43e c85c 093f 1c51 453f
00000230: 8158 533e be94 08bf f457 10be 5daf 9b3e
00000240: 5a03 febe 84b4 203f 9847 48bf ce99 ffbe
00000250: 33dc 233f a1e9 adbe 7f7a 553f 6c87 0d3f
00000260: 1c7d 3d3f 9418 14bf fab0 35bf edb0 96be
00000270: 7af5 373c aada 253f e1d6 c03c 4dcf bd3e
00000280: 3845 17bf eb84 99be dfbe 103f c3bc 0e3f
00000290: bf21 1dbf 50a6 d83e af2a a83e c46d 0cbf
000002a0: 4902 06bf 739f 7c3e 6b72 0ebf 6562 493e
000002b0: 19de 39be 035b 27bf d5d4 1c3e e289 f0be
000002c0: 7d96 04bf 96ca 0b3f 185a debe 327a e0be
000002d0: ec1b ecbd 51bd 6b3d 8f1d 333e 174a 6e3c
000002e0: c3ec ae3e ee22 0dbe 980e 093f 07c5 f7be
000002f0: 8e30 c93e be85 1e3f 3930 09bf 0403 19bf
00000300: 4ddd cfbe ea1c 0fbf f3fd 173f 236f 0c3f
00000310: 401e 30bf 331d 093f 912f 10bf f889 1fbf
00000320: ad8a 4d3e 44f4 b13e f12c 473e ede9 0d3f
00000330: 1b8c fdbd 478a 6ebf fa8f fcbe a50c 48bd
00000340: d93b adbe 36cf 1a3f 1a4f 413f 2bba 26bd
00000350: e895 37bf fabc 49bf 6932 ddbe 1232 2c3f
00000360: 0c29 8c3e 3faa 923e e016 29bf e91a c53e
00000370: 6755 03bc 1ba7 38bf da63 5c3f 1f5a f53e
00000380: 81ae b4be 61f3 1abf 0582 de3e 0835 263f
00000390: bc28 60be 9336 7fbc 8ea6 1ebf e21a d7be
000003a0: 7a0a bf3d baef 2a3d 781f b8be de4c ffbe
000003b0: ee94 21bd 15d0 2fbf 5e2b 13bf cabb 253f
000003c0: 408b 8d3e ad20 213f 68ac f93d fa6a 2a3f
000003d0: c3c1 22bf b12d 173f 1434 ae3e 5d78 33be
000003e0: 540b 11bf 98d9 e53e 84cf b93e afdc 1f3f
000003f0: 1197 29bf 2f0e b03e d854 e63e ba04 d3be
-0.5475193 -0.59330994 -0.052688178 0.59117556 -0.41210225 0.5982535 0.3234619 0.18380338
-0.5404566 -0.2661087 0.2938988 0.4449388 0.59441733 -0.61142915 -0.5512013 0.33321843
-0.56874025 0.56258756 0.52199167 -0.53221416 0.1209065 -0.59715027 0.48212525 0.4141693
-0.4590814 0.59175617 -0.4249733 0.5962948 0.44559425 -0.33981556 0.2585991 0.14902665
0.47663492 0.5008487 -0.4006597 0.26813623 0.54183525 0.5155461 -0.313682 -0.2731705
-0.5474893 0.49467516 -0.5164503 0.5553185 0.36537275 -0.5199311 0.44640666 -0.47155803
-0.47599837 0.44801897 -0.47674483 -0.36645153 0.5855906 -0.51789546 0.31437656 0.024513513
0.43616986 -0.42890137 -0.50521636 -0.47601634 0.5844758 -0.48272106 0.5390576 -0.5367208
-0.30857664 -0.33506978 0.36966914 -0.34690282 0.39697427 0.36715335 -0.40767398 -0.45591152
-0.3407277 -0.392974 0.4148467 0.36130014 -0.38593242 -0.34302574 -0.37376413 0.3933956
-0.393138 0.34559456 -0.3739302 -0.35143635 0.28007153 0.3506491 -0.3027691 -0.44281554
0.38574767 -0.36293453 0.4222391 0.38146847 -0.3543081 -0.41229987 -0.33346373 -0.37113807
-0.47067246 -0.5198469 0.50671387 0.4821698 -0.2456885 0.47001523 -0.49668846 0.4219541
-0.45990318 -0.43316445 -0.24030976 -0.2843623 0.35952133 -0.42983982 0.48220345 0.496263
-0.36628523 0.21624748 -0.4449867 0.15340804 -0.2952769 0.5064061 -0.46732363 -0.48415682
-0.36939773 -0.46367353 0.25190443 0.47260484 -0.46905854 -0.49063408 0.0038747073 -0.5218375
0.11235811 0.38689277 -0.7497089 0.8618046 0.71347564 0.59941375 0.6860593 0.63880366
-0.14798108 0.41477495 0.536572 0.7707689 0.2063923 -0.5335196 -0.14096051 0.3040723
-0.49611932 0.62775445 -0.78234243 -0.4992203 0.6400787 -0.33967307 0.8339004 0.5528476
0.74019027 -0.57850003 -0.7097317 -0.2943186 0.01122796 0.6478678 0.023539962 0.3707222
-0.59089994 -0.2998422 0.56541246 0.5575678 -0.6137962 0.42314386 0.32845065 -0.5485499
-0.52347237 0.246702 -0.5564334 0.19666441 -0.1815113 -0.6537325 0.15315564 -0.46980196
-0.51792127 0.54605997 -0.4342811 -0.43843228 -0.11528763 0.057553593 0.17491744 0.014544032
0.3416501 -0.13782856 0.53537893 -0.48392507 0.39294857 0.61922824 -0.53589207 -0.59770226
-0.40598527 -0.55903494 0.5937187 0.5485708 -0.6879616 0.5356018 -0.5632258 -0.623199
0.20072432 0.34756672 0.19450738 0.5543507 -0.123802386 -0.93179744 -0.49328595 -0.048840184
-0.33834723 0.6047243 0.75511324 -0.040704887 -0.71713114 -0.7880398 -0.43202522 0.672639
0.27375066 0.28645512 -0.6605053 0.38497093 -0.008015967 -0.7212998 0.8608986 0.4792032
-0.35289386 -0.60527617 0.43458572 0.6492467 -0.21890539 -0.015576976 -0.6197289 -0.42012697
0.0932817 0.041732527 -0.3596151 -0.49863333 -0.03944867 -0.68676883 -0.5748805 0.6473967
0.27645302 0.62940484 0.12191087 0.66569483 -0.63576907 0.59054095 0.34024107 -0.17526384
-0.5665791 0.44892573 0.36291134 0.6244611 -0.66246134 0.3438582 0.44986606 -0.41214544
